[2025-05-10 06:02:10,735]: 
Training ResNet18 with relu
[2025-05-10 06:03:31,203]: [ResNet18_relu] Epoch: 001 Train Loss: 1.6330 Train Acc: 0.3959 Eval Loss: 1.3469 Eval Acc: 0.5084 (LR: 0.001000)
[2025-05-10 06:03:31,272]: [ResNet18_relu] Best Eval Accuracy: 0.5084
[2025-05-10 06:03:31,323]: 
Training of full-precision model finished!
[2025-05-10 06:03:31,323]: Model Architecture:
[2025-05-10 06:03:31,324]: ResNet(
  (initial_layer): Sequential(
    (0): Conv2d(3, 64, kernel_size=(3, 3), stride=(1, 1), padding=(1, 1), bias=False)
    (1): BatchNorm2d(64, eps=1e-05, momentum=0.1, affine=True, track_running_stats=True)
    (2): LoggingActivation(
      (activation): ReLU(inplace=True)
    )
  )
  (layer1): Sequential(
    (0): ResidualBlock(
      (conv1): Conv2d(64, 64, kernel_size=(3, 3), stride=(1, 1), padding=(1, 1), bias=False)
      (bn1): BatchNorm2d(64, eps=1e-05, momentum=0.1, affine=True, track_running_stats=True)
      (act_fn1): LoggingActivation(
        (activation): ReLU(inplace=True)
      )
      (conv2): Conv2d(64, 64, kernel_size=(3, 3), stride=(1, 1), padding=(1, 1), bias=False)
      (bn2): BatchNorm2d(64, eps=1e-05, momentum=0.1, affine=True, track_running_stats=True)
      (skip_add): FloatFunctional(
        (activation_post_process): Identity()
      )
      (act_fn2): LoggingActivation(
        (activation): ReLU(inplace=True)
      )
    )
    (1): ResidualBlock(
      (conv1): Conv2d(64, 64, kernel_size=(3, 3), stride=(1, 1), padding=(1, 1), bias=False)
      (bn1): BatchNorm2d(64, eps=1e-05, momentum=0.1, affine=True, track_running_stats=True)
      (act_fn1): LoggingActivation(
        (activation): ReLU(inplace=True)
      )
      (conv2): Conv2d(64, 64, kernel_size=(3, 3), stride=(1, 1), padding=(1, 1), bias=False)
      (bn2): BatchNorm2d(64, eps=1e-05, momentum=0.1, affine=True, track_running_stats=True)
      (skip_add): FloatFunctional(
        (activation_post_process): Identity()
      )
      (act_fn2): LoggingActivation(
        (activation): ReLU(inplace=True)
      )
    )
  )
  (layer2): Sequential(
    (0): ResidualBlock(
      (conv1): Conv2d(64, 128, kernel_size=(3, 3), stride=(2, 2), padding=(1, 1), bias=False)
      (bn1): BatchNorm2d(128, eps=1e-05, momentum=0.1, affine=True, track_running_stats=True)
      (act_fn1): LoggingActivation(
        (activation): ReLU(inplace=True)
      )
      (conv2): Conv2d(128, 128, kernel_size=(3, 3), stride=(1, 1), padding=(1, 1), bias=False)
      (bn2): BatchNorm2d(128, eps=1e-05, momentum=0.1, affine=True, track_running_stats=True)
      (downsample): Sequential(
        (0): Conv2d(64, 128, kernel_size=(1, 1), stride=(2, 2), bias=False)
        (1): BatchNorm2d(128, eps=1e-05, momentum=0.1, affine=True, track_running_stats=True)
      )
      (skip_add): FloatFunctional(
        (activation_post_process): Identity()
      )
      (act_fn2): LoggingActivation(
        (activation): ReLU(inplace=True)
      )
    )
    (1): ResidualBlock(
      (conv1): Conv2d(128, 128, kernel_size=(3, 3), stride=(1, 1), padding=(1, 1), bias=False)
      (bn1): BatchNorm2d(128, eps=1e-05, momentum=0.1, affine=True, track_running_stats=True)
      (act_fn1): LoggingActivation(
        (activation): ReLU(inplace=True)
      )
      (conv2): Conv2d(128, 128, kernel_size=(3, 3), stride=(1, 1), padding=(1, 1), bias=False)
      (bn2): BatchNorm2d(128, eps=1e-05, momentum=0.1, affine=True, track_running_stats=True)
      (skip_add): FloatFunctional(
        (activation_post_process): Identity()
      )
      (act_fn2): LoggingActivation(
        (activation): ReLU(inplace=True)
      )
    )
  )
  (layer3): Sequential(
    (0): ResidualBlock(
      (conv1): Conv2d(128, 256, kernel_size=(3, 3), stride=(2, 2), padding=(1, 1), bias=False)
      (bn1): BatchNorm2d(256, eps=1e-05, momentum=0.1, affine=True, track_running_stats=True)
      (act_fn1): LoggingActivation(
        (activation): ReLU(inplace=True)
      )
      (conv2): Conv2d(256, 256, kernel_size=(3, 3), stride=(1, 1), padding=(1, 1), bias=False)
      (bn2): BatchNorm2d(256, eps=1e-05, momentum=0.1, affine=True, track_running_stats=True)
      (downsample): Sequential(
        (0): Conv2d(128, 256, kernel_size=(1, 1), stride=(2, 2), bias=False)
        (1): BatchNorm2d(256, eps=1e-05, momentum=0.1, affine=True, track_running_stats=True)
      )
      (skip_add): FloatFunctional(
        (activation_post_process): Identity()
      )
      (act_fn2): LoggingActivation(
        (activation): ReLU(inplace=True)
      )
    )
    (1): ResidualBlock(
      (conv1): Conv2d(256, 256, kernel_size=(3, 3), stride=(1, 1), padding=(1, 1), bias=False)
      (bn1): BatchNorm2d(256, eps=1e-05, momentum=0.1, affine=True, track_running_stats=True)
      (act_fn1): LoggingActivation(
        (activation): ReLU(inplace=True)
      )
      (conv2): Conv2d(256, 256, kernel_size=(3, 3), stride=(1, 1), padding=(1, 1), bias=False)
      (bn2): BatchNorm2d(256, eps=1e-05, momentum=0.1, affine=True, track_running_stats=True)
      (skip_add): FloatFunctional(
        (activation_post_process): Identity()
      )
      (act_fn2): LoggingActivation(
        (activation): ReLU(inplace=True)
      )
    )
  )
  (layer4): Sequential(
    (0): ResidualBlock(
      (conv1): Conv2d(256, 512, kernel_size=(3, 3), stride=(2, 2), padding=(1, 1), bias=False)
      (bn1): BatchNorm2d(512, eps=1e-05, momentum=0.1, affine=True, track_running_stats=True)
      (act_fn1): LoggingActivation(
        (activation): ReLU(inplace=True)
      )
      (conv2): Conv2d(512, 512, kernel_size=(3, 3), stride=(1, 1), padding=(1, 1), bias=False)
      (bn2): BatchNorm2d(512, eps=1e-05, momentum=0.1, affine=True, track_running_stats=True)
      (downsample): Sequential(
        (0): Conv2d(256, 512, kernel_size=(1, 1), stride=(2, 2), bias=False)
        (1): BatchNorm2d(512, eps=1e-05, momentum=0.1, affine=True, track_running_stats=True)
      )
      (skip_add): FloatFunctional(
        (activation_post_process): Identity()
      )
      (act_fn2): LoggingActivation(
        (activation): ReLU(inplace=True)
      )
    )
    (1): ResidualBlock(
      (conv1): Conv2d(512, 512, kernel_size=(3, 3), stride=(1, 1), padding=(1, 1), bias=False)
      (bn1): BatchNorm2d(512, eps=1e-05, momentum=0.1, affine=True, track_running_stats=True)
      (act_fn1): LoggingActivation(
        (activation): ReLU(inplace=True)
      )
      (conv2): Conv2d(512, 512, kernel_size=(3, 3), stride=(1, 1), padding=(1, 1), bias=False)
      (bn2): BatchNorm2d(512, eps=1e-05, momentum=0.1, affine=True, track_running_stats=True)
      (skip_add): FloatFunctional(
        (activation_post_process): Identity()
      )
      (act_fn2): LoggingActivation(
        (activation): ReLU(inplace=True)
      )
    )
  )
  (avg_pool): AvgPool2d(kernel_size=4, stride=4, padding=0)
  (fc): Linear(in_features=512, out_features=10, bias=True)
)
[2025-05-10 06:03:31,324]: 
Model Weights:
[2025-05-10 06:03:31,324]: 
Layer: initial_layer.0
Layer Shape: torch.Size([64, 3, 3, 3])
[2025-05-10 06:03:31,334]: Sample Values (25 elements): [… 2025-05-10 06:03:31,338]: Mean: -0.00039062
[2025-05-10 06:03:31,343]: Min: -0.19809438
[2025-05-10 06:03:31,344]: Max: 0.19930728
[2025-05-10 06:03:31,344]: 
Layer: initial_layer.1
…
[2025-05-10 06:03:31,789]: [ResNet18_relu_quantized_4_bits] after configure_qat:
[2025-05-10 06:03:31,894]: ResNet(
  (quant): QuantStub(
    (activation_post_process): FakeQuantize(
      fake_quant_enabled=tensor([1], device='cuda:0', dtype=torch.uint8), observer_enabled=tensor([1], device='cuda:0', dtype=torch.uint8), quant_min=0, quant_max=15, dtype=torch.quint8, qscheme=torch.per_tensor_affine, ch_axis=-1, scale=tensor([1.], device='cuda:0'), zero_point=tensor([0], device='cuda:0', dtype=torch.int32)
      (activation_post_process): MovingAverageMinMaxObserver(min_val=inf, max_val=-inf)
    )
  )
  (dequant): DeQuantStub()
  (initial_layer): Sequential(
    (0): Conv2d(3, 64, kernel_size=(3, 3), stride=(1, 1), padding=(1, 1), bias=False)
    (1): BatchNorm2d(64, eps=1e-05, momentum=0.1, affine=True, track_running_stats=True)
    (2): LoggingActivation(
      (activation): ReLU(inplace=True)
    )
  )
  (layer1): Sequential(
    (0): ResidualBlock(
      (conv1): Conv2d(
        64, 64, kernel_size=(3, 3), stride=(1, 1), padding=(1, 1), bias=False
        (weight_fake_quant): FakeQuantize(
          fake_quant_enabled=tensor([1], device='cuda:0', dtype=torch.uint8), observer_enabled=tensor([1], device='cuda:0', dtype=torch.uint8), quant_min=0, quant_max=15, dtype=torch.qint8, qscheme=torch.per_tensor_affine, ch_axis=-1, scale=tensor([1.], device='cuda:0'), zero_point=tensor([0], device='cuda:0', dtype=torch.int32)
          (activation_post_process): MovingAverageMinMaxObserver(min_val=inf, max_val=-inf)
        )
        (activation_post_process): NoopObserver()
      )
      (bn1): BatchNorm2d(
        64, eps=1e-05, momentum=0.1, affine=True, track_running_stats=True
        (activation_post_process): NoopObserver()
      )
      (act_fn1): LoggingActivation(
        (activation): Sequential(
          (0): ReLU(inplace=True)
          (1): QuantStub(
            (activation_post_process): FakeQuantize(
              fake_quant_enabled=tensor([1], device='cuda:0', dtype=torch.uint8), observer_enabled=tensor([1], device='cuda:0', dtype=torch.uint8), quant_min=0, quant_max=15, dtype=torch.quint8, qscheme=torch.per_tensor_affine, ch_axis=-1, scale=tensor([1.], device='cuda:0'), zero_point=tensor([0], device='cuda:0', dtype=torch.int32)
              (activation_post_process): MovingAverageMinMaxObserver(min_val=inf, max_val=-inf)
            )
          )
        )
      )
      (conv2): Conv2d(
        64, 64, kernel_size=(3, 3), stride=(1, 1), padding=(1, 1), bias=False
        (weight_fake_quant): FakeQuantize(
          fake_quant_enabled=tensor([1], device='cuda:0', dtype=torch.uint8), observer_enabled=tensor([1], device='cuda:0', dtype=torch.uint8), quant_min=0, quant_max=15, dtype=torch.qint8, qscheme=torch.per_tensor_affine, ch_axis=-1, scale=tensor([1.], device='cuda:0'), zero_point=tensor([0], device='cuda:0', dtype=torch.int32)
          (activation_post_process): MovingAverageMinMaxObserver(min_val=inf, max_val=-inf)
        )
        (activation_post_process): NoopObserver()
      )
      (bn2): BatchNorm2d(
        64, eps=1e-05, momentum=0.1, affine=True, track_running_stats=True
        (activation_post_process): NoopObserver()
      )
      (skip_add): FloatFunctional(
        (activation_post_process): NoopObserver()
      )
      (act_fn2): LoggingActivation(
        (activation): Sequential(
          (0): ReLU(inplace=True)
          (1): QuantStub(
            (activation_post_process): FakeQuantize(
…
          (1): QuantStub(
            (activation_post_process): FakeQuantize(
              fake_quant_enabled=tensor([1], device='cuda:0', dtype=torch.uint8), observer_enabled=tensor([1], device='cuda:0', dtype=torch.uint8), quant_min=0, quant_max=15, dtype=torch.quint8, qscheme=torch.per_tensor_affine, ch_axis=-1, scale=tensor([1.], device='cuda:0'), zero_point=tensor([0], device='cuda:0', dtype=torch.int32)
              (activation_post_process): MovingAverageMinMaxObserver(min_val=inf, max_val=-inf)
            )
          )
        )
      )
    )
  )
  (layer2): Sequential(
    (0): ResidualBlock(
      (conv1): Conv2d(
        64, 128, kernel_size=(3, 3), stride=(2, 2), padding=(1, 1), bias=False
        (weight_fake_quant): FakeQuantize(
          fake_quant_enabled=tensor([1], device='cuda:0', dtype=torch.uint8), observer_enabled=tensor([1], device='cuda:0', dtype=torch.uint8), quant_min=0, quant_max=15, dtype=torch.qint8, qscheme=torch.per_tensor_affine, ch_axis=-1, scale=tensor([1.], device='cuda:0'), zero_point=tensor([0], device='cuda:0', dtype=torch.int32)
          (activation_post_process): MovingAverageMinMaxObserver(min_val=inf, max_val=-inf)
        )
        (activation_post_process): NoopObserver()
      )
      (bn1): BatchNorm2d(
        128, eps=1e-05, momentum=0.1, affine=True, track_running_stats=True
        (activation_post_process): NoopObserver()
      )
      (act_fn1): LoggingActivation(
        (activation): Sequential(
          (0): ReLU(inplace=True)
          (1): QuantStub(
            (activation_post_process): FakeQuantize(
              fake_quant_enabled=tensor([1], device='cuda:0', dtype=torch.uint8), observer_enabled=tensor([1], device='cuda:0', dtype=torch.uint8), quant_min=0, quant_max=15, dtype=torch.quint8, qscheme=torch.per_tensor_affine, ch_axis=-1, scale=tensor([1.], device='cuda:0'), zero_point=tensor([0], device='cuda:0', dtype=torch.int32)
              (activation_post_process): MovingAverageMinMaxObserver(min_val=inf, max_val=-inf)
            )
          )
        )
      )
      (conv2): Conv2d(
        128, 128, kernel_size=(3, 3), stride=(1, 1), padding=(1, 1), bias=False
        (weight_fake_quant): FakeQuantize(
          fake_quant_enabled=tensor([1], device='cuda:0', dtype=torch.uint8), observer_enabled=tensor([1], device='cuda:0', dtype=torch.uint8), quant_min=0, quant_max=15, dtype=torch.qint8, qscheme=torch.per_tensor_affine, ch_axis=-1, scale=tensor([1.], device='cuda:0'), zero_point=tensor([0], device='cuda:0', dtype=torch.int32)
          (activation_post_process): MovingAverageMinMaxObserver(min_val=inf, max_val=-inf)
        )
        (activation_post_process): NoopObserver()
      )
      (bn2): BatchNorm2d(
        128, eps=1e-05, momentum=0.1, affine=True, track_running_stats=True
        (activation_post_process): NoopObserver()
      )
      (downsample): Sequential(
        (0): Conv2d(
          64, 128, kernel_size=(1, 1), stride=(2, 2), bias=False
          (weight_fake_quant): FakeQuantize(
            fake_quant_enabled=tensor([1], device='cuda:0', dtype=torch.uint8), observer_enabled=tensor([1], device='cuda:0', dtype=torch.uint8), quant_min=0, quant_max=15, dtype=torch.qint8, qscheme=torch.per_tensor_affine, ch_axis=-1, scale=tensor([1.], device='cuda:0'), zero_point=tensor([0], device='cuda:0', dtype=torch.int32)
            (activation_post_process): MovingAverageMinMaxObserver(min_val=inf, max_val=-inf)
          )
          (activation_post_process): NoopObserver()
        )
        (1): BatchNorm2d(
          128, eps=1e-05, momentum=0.1, affine=True, track_running_stats=True
          (activation_post_process): NoopObserver()
        )
      )
      (skip_add): FloatFunctional(
        (activation_post_process): NoopObserver()
      )
      (act_fn2): LoggingActivation(
        (activation): Sequential(
          (0): ReLU(inplace=True)
          (1): QuantStub(
            (activation_post_process): FakeQuantize(
…
